src/model/model.pth (torch, 16799 bytes, 4 tensors)

linear1.weight f4 [256, 11]
0	0x3d4b3c0c	0.049617812
1	0x3d408133	0.046998214
2	0x3e038395	0.12843163
3	0xbc9a80b4	-0.018860199
4	0xbe178e68	-0.14800417
5	0xbe6b0e62	-0.22954705
6	0xbe126ef9	-0.14300145
7	0xbc17d087	-0.009266025
8	0x3e08c461	0.13356163
9	0x3e234713	0.15945081
10	0x3e70399f	0.2345948
11	0x3e419619	0.18904914
12	0x3eca95c1	0.39567378
13	0x3edab2e0	0.42714596
14	0xbe0364ab	-0.1283137
15	0xbec2cb8f	-0.38045928
16	0xbe7c7174	-0.24652654
17	0xbc003cf8	-0.007827036
18	0xbeb3aaee	-0.35091347
19	0xbdb51fac	-0.088439316
20	0xbd89dcac	-0.06731543
21	0xbcb56057	-0.022140665
22	0x3b9d9480	0.0048089623
23	0xbf766730	-0.962512
24	0xbdb679b9	-0.089099355
25	0x3f1290a0	0.5725193
26	0xbe07f56f	-0.13277219
27	0xbe9b5157	-0.30335495
28	0x3da4ad09	0.08040816
29	0xbece8f16	-0.4034354
30	0x3d24308a	0.040085353
31	0x3eefb340	0.46816444
32	0xbefee6af	-0.49785373
33	0xbdb7b25a	-0.08969565
34	0x3db425ff	0.0879631
35	0xbc321ec0	-0.010871589
36	0x3e21dbde	0.15806529
37	0x3d3128f0	0.04325193
38	0xbe090503	-0.13380818
39	0x3e5ee913	0.21768598
40	0xbe63df2a	-0.22253099
41	0xbda0a55e	-0.07844041
42	0xbd1cd5a3	-0.038289677
43	0xbdaf4a3a	-0.085590795
44	0x3ea018e6	0.31268996
45	0xbf6bd771	-0.9212561
46	0x3e99cee8	0.3004067
47	0xbc3cb961	-0.011518807
48	0x3cdc6131	0.026901813
49	0xbe164ab4	-0.14676934
50	0x3e97558e	0.2955746
51	0xbda01b07	-0.07817655
52	0x3cb9f585	0.02270008
53	0xbf10a071	-0.56494814
54	0xbeac9b0b	-0.33712038
55	0xbd10397e	-0.03521108
56	0x3eb787e3	0.3584586
57	0x3ed8a653	0.42314395
58	0xbd496678	-0.049169987
59	0x3c2eac83	0.010661247
60	0xbe2359bf	-0.15952204
61	0xbe433344	-0.19062525
62	0x3e6287d2	0.22122124
63	0x3e382b08	0.17985165
64	0xbe9debb7	-0.308439
65	0x3e342d5f	0.17595433
66	0xbda69f79	-0.08135886
67	0x3edd4322	0.4321528
68	0xbddb0967	-0.10695153
69	0x3ebf4bce	0.37362522
70	0x3e7f93f1	0.24958779
71	0xbf2b1b66	-0.6683868
72	0xbf2d75a4	-0.6775763
73	0x3d8f2d76	0.06991093
74	0x3e4d9f4d	0.200803
75	0xbf1c4622	-0.61044514
76	0xbf1d2817	-0.613893
77	0x3efed96d	0.49775258
78	0x3e01cb2a	0.12675157
79	0xbf28af90	-0.6589289
80	0x3e932491	0.28738835
81	0x3e13631d	0.14393277
82	0xbeb066b0	-0.34453344
83	0xbe738ac0	-0.23783398
84	0xbe6a4306	-0.2287713
85	0xbdfdb931	-0.12388838
86	0x3efc94a1	0.49332145
87	0x3e8b0b1d	0.27156916
88	0xbee22e52	-0.44175965
89	0x3e9d2da6	0.3069889
90	0xbc8c7ad4	-0.017148413
91	0xbe915f18	-0.28392863
92	0xbd7611f4	-0.060075715
93	0xbe455441	-0.19270422
94	0xbe856f80	-0.2606163
95	0xbeacc117	-0.33741066
96	0xbecce86e	-0.4002108
97	0xbd9450ae	-0.07241951
98	0x3db412a9	0.08792622
99	0x3f028b1b	0.5099351
100	0xbeccef66	-0.40026397
101	0x3eb12e81	0.34605792
102	0x3e9c7aa5	0.3056232
103	0xbe3e3e6a	-0.18578497
104	0x3d83b816	0.06431596
105	0xbdd33ecc	-0.10314712
106	0xbdaa31d2	-0.08310284
107	0x3ec756a5	0.38933292
108	0x3e9531c2	0.29139525
109	0xbe93f604	-0.28898633
110	0x3d7a3104	0.0610819
111	0xbead142b	-0.3380445
112	0xbea10020	-0.31445408
113	0xbf5eb2c3	-0.8699152
114	0x3ee5a018	0.44848704
115	0xbde7ca6e	-0.11317907
116	0xbedc354d	-0.43009415
117	0xbf3e2948	-0.7428174
118	0x3effbe28	0.49949765
119	0xbf14ff4c	-0.5820205
120	0xbf089adf	-0.53361315
121	0x3ef51ea9	0.47874954
122	0x3f05436d	0.5205601
123	0xbefb3a8b	-0.49068102
124	0x3d59b867	0.053154375
125	0xbbbb09fe	-0.0057079783
126	0x3e0c2888	0.13687336
127	0x3c00db20	0.0078647435
128	0xbdc65723	-0.09684589
129	0x3dcf8daa	0.10134442
130	0xbdcf6bbe	-0.10127972
131	0x3e65e448	0.22450364
132	0xbf026c20	-0.50946236
133	0x3dc05bf5	0.093925394
134	0xbf697894	-0.9119961
135	0xbe18078a	-0.14846626
136	0x3e76f578	0.24117076
137	0x3e368dc2	0.17827514
138	0xbec01731	-0.37517694
139	0x3e5b34ed	0.21406908
140	0xbe82530e	-0.2545399
141	0xbf04b215	-0.5183423
142	0x3ee67bc8	0.45016313
143	0x3e62ac29	0.22135986
144	0xbe7c11a1	-0.246161
145	0x3d0ee208	0.03488353
146	0xbe623b88	-0.22093022
147	0x3da64f1c	0.08120558
148	0xbdb000a5	-0.08593873
149	0xbe460784	-0.19338804
150	0xbe6fed51	-0.23430373
151	0xbe6f0998	-0.23343503
152	0xbe91b3a7	-0.28457376
153	0x3c1a6871	0.009424315
154	0x3f01ea38	0.50748014
155	0xbd09d850	-0.033653557
156	0xbdac982f	-0.08427464
157	0x3ccb4fe0	0.02481836
158	0xbec8b8ff	-0.3920364
159	0x3f078d20	0.52949715
160	0x3e91eddf	0.28501794
161	0x3e1dbc64	0.15403897
162	0x3f09be72	0.5380622
163	0xbf051761	-0.519888
164	0xbf22f896	-0.6366056
165	0xbe511b82	-0.2042065
166	0xbe5cef9b	-0.21575777
167	0xbe1746ea	-0.14773145
168	0x3d8837ad	0.06651244
169	0xbe816b74	-0.25277293
170	0x3c87de4b	0.01658549
171	0x3e1a988b	0.15097253
172	0x3db97d2e	0.09057079
173	0xbe00da03	-0.12583165
174	0x3ce921a1	0.028458418
175	0xbb037faa	-0.0020065107
176	0x3da607c0	0.08106947
177	0x3ed255fd	0.4108123
178	0x3dd2a6bf	0.102857105
179	0xbe9424fb	-0.28934464
180	0x3d87c413	0.06629195
181	0xbd09d3f0	-0.033649385
182	0xbe5eb997	-0.21750484
183	0x3f039ae1	0.514082
184	0x3e2ba0f8	0.16760623
185	0x3e44828f	0.19190429
186	0x3ea897df	0.32928368
187	0xbecc405f	-0.3989286
188	0xbe99d8b3	-0.3004814
189	0x3f42b41e	0.76056087
190	0x3dbea96e	0.0930966
191	0x3d313a11	0.043268267
192	0xbef885b0	-0.48539495
193	0x3d5e64f6	0.054295503
194	0xbc00d3b7	-0.007862977
195	0x3e175996	0.14780268
196	0xbf23743c	-0.63849235
197	0xbe4925c4	-0.19643313
198	0x3dc45168	0.095858395
199	0x3e971458	0.2950771
200	0xbe24f8d0	-0.1611054
201	0xbe9fdc91	-0.31222966
202	0x3dbaec7e	0.091271386
203	0xbeb3d361	-0.35122207
204	0xbe84249c	-0.2580918
205	0xbe8c756c	-0.27433336
206	0x3db99cd4	0.09063116
207	0xbee8683a	-0.4539202
208	0xbde3e1d9	-0.111270614
209	0xbe79f3b6	-0.24409375
210	0x3aab08ec	0.0013048924
211	0x3e58a66c	0.21157235
212	0xbd85ac7e	-0.06527041
213	0xbdb4bfca	-0.08825643
214	0xbe3639fd	-0.17795558
215	0x3f0b170e	0.54332054
216	0xbee4af05	-0.4466478
217	0x3e5e3d96	0.2170318
218	0xbed8a66a	-0.42314464
219	0xbef13b0e	-0.47115368
220	0xbe837a1e	-0.25679106
221	0xbc151b65	-0.00910077
222	0xbe3f9283	-0.18708234
223	0xbc01e14c	-0.00792725
224	0xbe8441fe	-0.25831598
225	0x3dc5bb02	0.096548095
226	0xbe3eb6e1	-0.1862445
227	0xbd8d1624	-0.068889886
228	0x3d507a18	0.050897688
229	0x3e0a0a09	0.1348039
230	0x3dbe21a7	0.092837624
231	0xbdadd9c8	-0.08488804
232	0x3da84da3	0.08217933
233	0x3e3ebba9	0.18626274
234	0xbe0b6b35	-0.13615115
235	0xbe68c171	-0.22730042
236	0xbdb214b4	-0.08695355
237	0xbdd7abf3	-0.105308436
238	0x3bd00e59	0.0063493666
239	0xbc9376f8	-0.018001065
240	0x3d83ca21	0.064350374
241	0x3dcefe13	0.101070546
242	0x3f57b74b	0.8426406
243	0xbf2b9ae4	-0.6703322
244	0x3dbb21d2	0.0913731
245	0x3e8dead1	0.27718213
246	0xbda8dbec	-0.08245072
247	0x3e1efa03	0.1552506
248	0xbe202544	-0.15639216
249	0xbda4d452	-0.080483094
250	0x3e97b76f	0.29632136
251	0x3df99a53	0.12187638
252	0x3eaadde2	0.33372408
253	0x3e07be44	0.13256174
254	0xbf2b1e28	-0.6684289
255	0xbe3de5f9	-0.18544759

linear1.bias f4 [256]
0	0xbeff5b22	-0.49874216
1	0xbe6f6ea9	-0.23382057
2	0xbe226022	-0.15856984
3	0xbe999fab	-0.3000463
4	0x3f0ca254	0.54935193
5	0xbe4f9f75	-0.20275672
6	0x3e21d407	0.15803538
7	0xbd856543	-0.06513455
8	0xbdac6237	-0.084171705
9	0xbe85c4cc	-0.26126707
10	0x3e6db072	0.2321184
11	0xbe769383	-0.24079709
12	0xbdcec77e	-0.10096644
13	0xbe67e3d7	-0.22645508
14	0xbe2d11d4	-0.16901332
15	0xbe92cc41	-0.28671458
16	0xbea2e8d3	-0.31818256
17	0x3f287872	0.65808785
18	0xbe2913ec	-0.16511506
19	0xbea549c9	-0.32282856
20	0xbe91721c	-0.2840737
21	0xbeac5271	-0.33656648
22	0xbe9e4a65	-0.30916134
23	0xbcdb3b3a	-0.02676164
24	0x3e577bec	0.21043366
25	0xbde30075	-0.110840715
26	0xbef684ff	-0.48148343
27	0xbe908945	-0.28229728
28	0x3eb85359	0.3600109
29	0xbe4ecce8	-0.20195353
30	0xbea922ea	-0.3303445
31	0xbe8f5035	-0.2799088
32	0xbda70aaf	-0.081563346
33	0xbe7aa69f	-0.24477623
34	0xbec1c522	-0.37845713
35	0xbef0b83e	-0.47015566
36	0xbe1f8077	-0.15576349
37	0x3ea797aa	0.32732898
38	0xbe3fc636	-0.18727955
39	0xbe7c3143	-0.24628167
40	0xbe884119	-0.26612166
41	0x3db75341	0.08951426
42	0xbed266a8	-0.41093946
43	0xbe8dab56	-0.2766978
44	0x3ddfea2d	0.10933337
45	0xbf0c4dc0	-0.5480614
46	0x3e0df774	0.13863927
47	0xbe5b8ef0	-0.21441245
48	0x3ef9b8bc	0.48773754
49	0xbe8a83bb	-0.27053627
50	0xbeb8f160	-0.36121655
51	0xbecb5c66	-0.39718932
52	0xbe58d087	-0.21173297
53	0xbed14185	-0.408703
54	0x3bbb0ce7	0.005708325
55	0x3f1919c0	0.59804916
56	0xbe87f620	-0.26554966
57	0xbecbc3c8	-0.39797807
58	0xbec80459	-0.39065817
59	0xbdf49bf2	-0.11943807
60	0xbe995ae5	-0.2995216
61	0xbe80a4b2	-0.25125653
62	0xbe9b9d51	-0.3039346
63	0xbce48bff	-0.027898787
64	0xbe8defd2	-0.2772203
65	0xbe6f6a34	-0.23380357
66	0x3ec9f86e	0.3944735
67	0xbe2b13af	-0.16706727
68	0xbf0ffbf0	-0.562438
69	0xbe6571c5	-0.22406681
70	0xbc8caae7	-0.017171336
71	0x3ec46085	0.3835489
72	0x3e93044c	0.28714216
73	0xbebc024f	-0.3672051
74	0xbecbcb9e	-0.39803785
75	0xbe5d0b05	-0.21586235
76	0xbe98c773	-0.29839668
77	0xbe9833d2	-0.29727036
78	0x3d6e5e3d	0.05819534
79	0xbe9bd120	-0.30432987
80	0xbe825fa1	-0.25463584
81	0xbe5a01e1	-0.21289779
82	0xbe8a2939	-0.26984575
83	0xbe1518f0	-0.14560294
84	0xbe283944	-0.16428095
85	0xbe183478	-0.14863765
86	0xbed19d46	-0.40940303
87	0xbef6bb21	-0.48189643
88	0xbe914b5d	-0.2837781
89	0xbe229869	-0.15878452
90	0xbec02f2b	-0.37535986
91	0xbebb24a7	-0.365514
92	0xbe54ef40	-0.20794392
93	0xbdb4757a	-0.088114694
94	0xbd0bfd8b	-0.034177344
95	0x3d2229e4	0.03959073
96	0xbdca8efb	-0.098905526
97	0x3eb44eaa	0.35216266
98	0xbe879506	-0.26480883
99	0x3e80497f	0.25056073
100	0xbdf19b1f	-0.11797165
101	0xbefbf527	-0.49210474
102	0xbe6fc779	-0.23415937
103	0xbecb9239	-0.39759997
104	0xbed0bdef	-0.40769908
105	0xbc709d12	-0.014685886
106	0xbe8931c9	-0.26795796
107	0xbea35416	-0.3190009
108	0xbeab9c85	-0.33517852
109	0x3e0d17a3	0.13778548
110	0x3ea63aac	0.32466638
111	0xbea679d2	-0.32514817
112	0x3f02cf42	0.510975
113	0x3d8f72e4	0.070043355
114	0xbedd5e09	-0.43235806
115	0xbd62dc2b	-0.05538575
116	0x3e14724a	0.14496723
117	0x3ee52f59	0.44762686
118	0x3cee8ece	0.029120829
119	0x3d89d9fe	0.06731032
120	0x3db007b7	0.085952215
121	0xbe484237	-0.19556509
122	0xbde8d9b0	-0.113696456
123	0x3e7ae216	0.24500307
124	0xbeab7a55	-0.3349177
125	0xbe92377d	-0.2855796
126	0xbedd31b5	-0.43201986
127	0xbe37fc20	-0.17967272
128	0x3d8ebd8f	0.06969749
129	0xbe391068	-0.18072665
130	0x3e28a8dc	0.16470665
131	0xbe63e6ec	-0.22256058
132	0xbe9edefd	-0.31029502
133	0x3ddc49b4	0.10756245
134	0x3e5166e3	0.20449404
135	0xbdf39e5f	-0.11895441
136	0xbe2d7814	-0.16940337
137	0xbe4e7774	-0.20162755
138	0xbea03b43	-0.31295213
139	0xbe9e4360	-0.30910778
140	0xbe320554	-0.17384845
141	0xbed2ad71	-0.4114795
142	0xbe8aa772	-0.27080876
143	0xbe607ca2	-0.21922544
144	0xbe811eea	-0.25218898
145	0xbe60e1c4	-0.21961123
146	0x3e45f1d6	0.19330534
147	0xbe8cb2f9	-0.27480295
148	0x3e0a6223	0.13513999
149	0xbc13d768	-0.009023525
150	0xbe961e4e	-0.29319996
151	0xbce47549	-0.027887957
152	0xbe854bff	-0.26034543
153	0xbe9cf0b7	-0.306524
154	0xbe0e6989	-0.13907446
155	0xbe554ee0	-0.2083087
156	0xbeb26196	-0.34840077
157	0xbed325e0	-0.41239834
158	0x3cc7fffd	0.024414057
159	0xbc498da8	-0.01230184
160	0xbe3f0de3	-0.18657641
161	0xbe492bfd	-0.19645686
162	0x3e692269	0.22767033
163	0x3ee2ecc3	0.4432126
164	0x3e329c5e	0.17442462
165	0x3d62a198	0.05532989
166	0xbd8164a4	-0.06318024
167	0x3ea64b53	0.32479343
168	0xbea7fede	-0.32811636
169	0xbe555e63	-0.20836787
170	0x3e063ea2	0.1310983
171	0xbdf16b24	-0.117880136
172	0xbdde31bf	-0.10849332
173	0xbeca3de3	-0.3950034
174	0x3d1cab2e	0.038249187
175	0x3beeaea3	0.007284002
176	0x3e8ab445	0.2709066
177	0xbe4af419	-0.19819678
178	0xbea1f0f2	-0.3162914
179	0xbe7a2fef	-0.24432348
180	0xbeb5a4be	-0.3547725
181	0xbd75aab0	-0.059977233
182	0xbdb49860	-0.08818126
183	0x3db16940	0.08662653
184	0xbe8b13d8	-0.27163577
185	0x3e9966b9	0.29961184
186	0x3e088e10	0.13335443
187	0xbd0b5a0d	-0.034021426
188	0x3d64faee	0.055903368
189	0xbe643377	-0.22285257
190	0xbe964e63	-0.2935668
191	0xbe27dffc	-0.16394037
192	0xbeb4b1ba	-0.35291845
193	0x3d714360	0.058902144
194	0x3ef7fa2e	0.4843306
195	0xbf0bfa5e	-0.54678905
196	0x3edcf5f9	0.43156412
197	0x3e0e4008	0.13891613
198	0xbe2ab405	-0.16670235
199	0x3f0c3da3	0.5478155
200	0x3d930791	0.071791776
201	0x3da7b035	0.08187906
202	0xbf1cc240	-0.612339
203	0x3f41cfd4	0.75707746
204	0x3f0d2038	0.55127287
205	0x3d1783ec	0.036991045
206	0x3e80112f	0.2501311
207	0xbeaae8c1	-0.33380702
208	0xbd9a1c6b	-0.075249515
209	0xbbec5f8b	-0.007213538
210	0xbecfd45a	-0.405917
211	0xbebe7f3b	-0.37206444
212	0xbe0c7c91	-0.13719393
213	0x3ecb39c5	0.39692512
214	0xbe61697a	-0.22012892
215	0xbe4928e0	-0.19644499
216	0xbd8c3182	-0.0684538
217	0xbdf66910	-0.12031758
218	0xbe44306a	-0.19159093
219	0xbe409c19	-0.18809547
220	0xbeaa775c	-0.3329419
221	0xbdad11c6	-0.08450656
222	0xbe85f8a9	-0.26166275
223	0xbd5c1e26	-0.05373969
224	0x3d058cf2	0.03260512
225	0xbeac408a	-0.3364299
226	0xbe3abfd5	-0.1823724
227	0xbe05df30	-0.1307342
228	0xbecdbc70	-0.4018283
229	0xbe88a5fc	-0.26689136
230	0xbe851917	-0.25995705
231	0xbe8eb94b	-0.27875742
232	0xbe436f16	-0.19085345
233	0xbeb2ccdc	-0.3492192
234	0xbdc730d3	-0.09726109
235	0xbe8e3537	-0.27774975
236	0xbe84456d	-0.25834218
237	0xbec1b70f	-0.37834975
238	0xbedffee7	-0.43749163
239	0xbefdca77	-0.4956853
240	0xbeca8757	-0.3955638
241	0x3e83b066	0.2572052
242	0x3e35d06b	0.17755286
243	0xbe8c14fa	-0.27359754
244	0xbea25ea8	-0.31712842
245	0xbe32f524	-0.17476326
246	0xbec4fc2d	-0.38473645
247	0xbe1e9a07	-0.15488444
248	0xbd58044c	-0.052738473
249	0xbd17f9d9	-0.037103508
250	0xbe704cb4	-0.2346676
251	0xbe2f85c4	-0.17140871
252	0xbcee7343	-0.029107695
253	0xbd324cc9	-0.04353026
254	0xbf0af4bc	-0.54279685
255	0x3e90d60a	0.282883

linear2.weight f4 [3, 256]
0	0xbd06a8a6	-0.03287568
1	0xbd499551	-0.049214665
2	0xbe4de313	-0.20106153
3	0x3d5e73ae	0.05430954
4	0x3e98b035	0.29821935
5	0x3a4be0bb	0.0007777323
6	0x3ed7ddc3	0.42161378
7	0xbeaa0815	-0.3320929
8	0xbdaaa936	-0.08333056
9	0xbe352c1d	-0.17692609
10	0x3f07fc62	0.5311948
11	0xbd5b0795	-0.053474028
12	0xbeaeb1e0	-0.34120083
13	0x3c0a6a9f	0.008448272
14	0xbf307c1e	-0.6893939
15	0x396a6106	0.00022352123
16	0xbdaf1ea4	-0.08550766
17	0x3f0632b9	0.52421147
18	0x3cd4f3c9	0.025995152
19	0xbdce2064	-0.10064772
20	0xba82437d	-0.0009938326
21	0xbc1eec5a	-0.009699905
22	0xbe7b6984	-0.2455197
23	0x3d6c192f	0.057641204
24	0x3e8f86e3	0.28032598
25	0xbec612c7	-0.386862
26	0x3b7f9ab6	0.0039002127
27	0x3c53c3e2	0.01292512
28	0x3f116607	0.56796306
29	0xbe259ddb	-0.16173498
30	0x3c0ffea7	0.008788741
31	0xbf02e995	-0.5113767
32	0xbe6757e5	-0.22592123
33	0x3c3600b6	0.011108568
34	0x3da5c5d0	0.0809437
35	0x3c541633	0.012944746
36	0xbe0e538f	-0.13899063
37	0x3f141d11	0.5785685
38	0xbcb75485	-0.02237917
39	0xbe32b088	-0.17450154
40	0xbd0fc2b2	-0.035097785
41	0x3d16d719	0.036826227
42	0xbd3674b4	-0.04454489
43	0xbee6fa86	-0.4511301
44	0xbe8c1452	-0.27359253
45	0xbddb121a	-0.10696812
46	0x3f188a44	0.59585977
47	0xbe85d45b	-0.26138577
48	0x3e3f4925	0.18680246
49	0x3ab9d8fe	0.0014179049
50	0xbe2639b6	-0.16232952
51	0xbe8264a4	-0.25467408
52	0xbe598f1f	-0.21246003
53	0xbd83218a	-0.064028814
54	0x3eacd9d3	0.33759937
55	0x3f0731c6	0.52810323
56	0xbd2bb1f0	-0.04191774
57	0xbbd8300c	-0.0065975245
58	0xbd1cda6e	-0.03829425
59	0xbebbab08	-0.36653924
60	0xbc8afc27	-0.016965939
61	0x3cc66039	0.024215804
62	0xbb61cef3	-0.0034455627
63	0xbe9ebdbf	-0.3100414
64	0xbc6e3f8d	-0.014541519
65	0xbcc1ec60	-0.023672283
66	0x3f0fa5c3	0.5611231
67	0x3de4bdcd	0.11169014
68	0xbe9c41b7	-0.30518886
69	0x3e1edb63	0.15513377
70	0x3d1f8a3d	0.038950194
71	0x3e0666e2	0.13125184
72	0xbdc4fbbe	-0.096183285
73	0x3d3c5858	0.04598269
74	0xbd220fd3	-0.039565872
75	0xbb50c3ab	-0.0031854908
76	0xbd5c5d78	-0.053800076
77	0xbd81296e	-0.0630673
78	0x3ebc9a0f	0.36836287
79	0xbc17c939	-0.009264284
80	0xbeb4d32e	-0.35317367
81	0xbde2246e	-0.11042105
82	0x3bd06d29	0.006360669
83	0xbe61d1ee	-0.22052738
84	0xbc19edfa	-0.009395117
85	0x3e980160	0.2968855
86	0xbe639ffd	-0.22229
87	0x3c97faa2	0.018552128
88	0xbee996e3	-0.4562293
89	0x3b3f89fd	0.0029226535
90	0x3cb8e103	0.022568231
91	0xbe68eb3f	-0.2274599
92	0x3bd4cdf5	0.0064942786
93	0x3c8a0575	0.016848305
94	0x3c79f9fd	0.015257356
95	0x3f1a6ea4	0.60325074
96	0xbef140b5	-0.4711968
97	0x3e8fa744	0.280573
98	0xbbc1e3b3	-0.0059170364
99	0x3edbe946	0.4295141
100	0xbf079abe	-0.5297049
101	0x3c5c7769	0.013456204
102	0xbd08808f	-0.033325728
103	0xbdd8a00d	-0.10577402
104	0xbe95d9c3	-0.29267702
105	0xbeda5469	-0.42642525
106	0xbe8b9d7d	-0.27268592
107	0xbd6df5b7	-0.05809566
108	0xbb117688	-0.0022195894
109	0x3ee37823	0.44427595
110	0x3eb1ddcc	0.3473953
111	0xbe5a287a	-0.21304503
112	0x3eb655d8	0.3561237
113	0xbf157bf4	-0.5839226
114	0xbd6d63e1	-0.05795658
115	0xbd782fe7	-0.06059256
116	0x3e68c227	0.22730313
117	0x3dfc8d84	0.123316795
118	0xbabb93cc	-0.0014311015
119	0xbd50fd4a	-0.051022805
120	0xbddb2dc6	-0.1070209
121	0x3d682fed	0.05668633
122	0xbe932aba	-0.28743535
123	0x3dc5f1fb	0.09665295
124	0xbd0a2628	-0.033727795
125	0xbd8bfcd2	-0.06835331
126	0xbdee5376	-0.11637013
127	0xbd4ccb6c	-0.049998686
128	0x3e2fa941	0.17154409
129	0xbeb7f022	-0.35925394
130	0x3e83aa69	0.2571595
131	0xbc83045b	-0.015993288
132	0xbd0fe4cc	-0.035130307
133	0x3e125bb4	0.14292794
134	0x3e8b6351	0.2722421
135	0x3e168608	0.14699566
136	0x3c021b70	0.007941112
137	0xbe11573b	-0.14193432
138	0xbd74c909	-0.059762035
139	0xbe44ea1a	-0.19229928
140	0x3e44e19c	0.19226688
141	0xbda71b6a	-0.08159526
142	0xbcedb8e8	-0.029018834
143	0xbf0bb903	-0.5457918
144	0xbc633346	-0.013867205
145	0x3a57e051	0.0008235025
146	0x3d69478b	0.056952994
147	0xbdc94bbb	-0.098288976
148	0x3ec1f04f	0.37878653
149	0x3e95a945	0.29230705
150	0xbead76a5	-0.3387958
151	0x3e9047cd	0.2817978
152	0x3d89874a	0.067152575
153	0xbed93158	-0.4242046
154	0xbea7d0ac	-0.32776392
155	0xbe86d11d	-0.26331416
156	0x3d2cb382	0.04216338
157	0xbdba8ba9	-0.09108669
158	0x3cc114d7	0.023569508
159	0x3d8c0c26	0.06838255
160	0xbc200ddf	-0.009768932
161	0xbe2326de	-0.15932795
162	0x3dfc7965	0.12327842
163	0x3e395bd8	0.18101442
164	0x3eb3b90d	0.3510212
165	0xbb698b40	-0.0035635978
166	0xbd2dda65	-0.042444605
167	0x3edf565d	0.43620577
168	0xbd01a10f	-0.031647738
169	0xbf0379e6	-0.5135788
170	0x3ef8ccd9	0.48593786
171	0xbca0955b	-0.019602468
172	0xbe994584	-0.2993585
173	0x3da559de	0.080737814
174	0x3e691c0e	0.22764608
175	0x3db57ae0	0.08861327
176	0x3e114f2a	0.14190355
177	0xbe7ed9fd	-0.24887843
178	0xbe359dda	-0.17735997
179	0x3db4adba	0.08822198
180	0xbd8e6682	-0.069531456
181	0xbca70df4	-0.020392396
182	0xbea819be	-0.3283214
183	0x3c875396	0.016519349
184	0x3d1e0dba	0.03858731
185	0x3e8e56e1	0.27800658
186	0x3de180e5	0.11010913
187	0x3bb715e0	0.0055873245
188	0x3e85abc3	0.26107606
189	0xbe8517a0	-0.25994587
190	0xbb4edc84	-0.0031564543
191	0xbe10e1a5	-0.14148577
192	0x3ca19fe9	0.019729571
193	0x3db06609	0.08613212
194	0x3e87c4e2	0.26517397
195	0xbc1d1809	-0.00958825
196	0x3f004336	0.50102556
197	0x3e888403	0.26663217
198	0xbd5705e9	-0.05249587
199	0x3f2814bd	0.65656644
200	0x3eda0853	0.42584476
201	0xbe0155f1	-0.1263044
202	0xbcf08083	-0.029358154
203	0x3f209b29	0.62736756
204	0x3ec70bc4	0.38876164
205	0x3edb729f	0.42860886
206	0xbf1c26b8	-0.6099658
207	0x3cfa75fc	0.030573837
208	0x3ddfaa98	0.1092121
209	0xbe2d243b	-0.16908352
210	0x3d036d23	0.032086503
211	0xbe127190	-0.14301133
212	0x3d722092	0.059113093
213	0x3f1208c5	0.5704463
214	0xbcb1390a	-0.021633644
215	0x3d0a343b	0.033741217
216	0xbeeaa4d1	-0.4582887
217	0xbbd69933	-0.0065490245
218	0x3da142e4	0.078740865
219	0x3f0403c2	0.51568234
220	0xbc51facf	-0.012816145
221	0xbe0491ae	-0.12946197
222	0xbd04a298	-0.032381624
223	0x3b8802c9	0.0041507226
224	0x3ddefbe7	0.1088789
225	0xbdd6e288	-0.10492426
226	0xbd2c7b64	-0.042109862
227	0x3d390e50	0.045179665
228	0xbc80df21	-0.015731396
229	0xbe2af9b1	-0.16696812
230	0xbe20a099	-0.15686263
231	0xbe94d35c	-0.29067504
232	0xbe89ad4e	-0.26890033
233	0xbd28e90c	-0.041237876
234	0x395812f0	0.0002060642
235	0xbd22b3da	-0.0397223
236	0xbf1d832c	-0.6152828
237	0x3c2a33ec	0.010388356
238	0xbe5764ea	-0.2103459
239	0x3ca74628	0.020419195
240	0xbcd62ec6	-0.02614535
241	0x3e16b111	0.14715983
242	0x3ead5d20	0.3386011
243	0xbe4d1ef4	-0.20031339
244	0xbd85945b	-0.06522437
245	0x3d117497	0.03551158
246	0xbb8b361d	-0.004248394
247	0xbd31dc74	-0.04342313
248	0xbecec640	-0.40385628
249	0x3ea9ff97	0.33202812
250	0xbd655d45	-0.055997152
251	0x3bc78155	0.0060884156
252	0xbe94e2cb	-0.2907928
253	0x3e91c9aa	0.2847417
254	0xbcc6a80f	-0.024250058
255	0xbe5377ae	-0.20651123

linear2.bias f4 [3]
0	0x3ec00665	0.3750488
1	0x3da08b35	0.07839052
2	0x3bb37cfd	0.0054775462
